model_ep50_0.0002.pth (torch, 13292 bytes, 6 tensors)

fc1.weight f4 [64, 6]
0	0xbd796164	-0.060883895
1	0xbe905be7	-0.28195116
2	0x3c5421c0	0.0129475
3	0x3ba297c0	0.0049619377
4	0xbe993dd8	-0.29929996
5	0x3ddbb380	0.10727596
6	0x3d93cfc0	0.072173595
7	0xbe9586d6	-0.29204434
8	0x3e120200	0.14258575
9	0xbe423e51	-0.18969084
10	0x3ed00624	0.40629685
11	0xbe8d052b	-0.27543005
12	0xbee72453	-0.451449
13	0xbece4e39	-0.40294054
14	0x3d92237c	0.07135674
15	0xbd4e7650	-0.0504058
16	0x3e357e30	0.17723918
17	0x3e8bafa0	0.2728243
18	0xbe3725e9	-0.17885555
19	0x3e8972b1	0.26845315
20	0x3d713cb0	0.058895767
21	0x3d629ec0	0.055327177
22	0x3eb6c82a	0.35699588
23	0xbddac3d4	-0.106818825
24	0x3f19b622	0.6004354
25	0xbdf9ebcc	-0.12203178
26	0xbe298d13	-0.16557722
27	0xbdb7b0ec	-0.08969292
28	0xbdfaf314	-0.12253395
29	0xbd327358	-0.04356703
30	0x3f1514d2	0.58234894
31	0xbdf0d2ab	-0.11758932
32	0xbdd3d9c0	-0.10344267
33	0xbc3f27c0	-0.011667192
34	0x3e4f6988	0.202551
35	0x3e272d0c	0.16325778
36	0x3e1e3437	0.15449606
37	0xbe193d72	-0.14964846
38	0x3e94771e	0.2899713
39	0xbec07756	-0.37591046
40	0xbd0bd3b8	-0.034137458
41	0xbea1e5de	-0.31620687
42	0x3e8cf735	0.27532354
43	0xbf0eebb3	-0.558284
44	0xbd1cce98	-0.03828296
45	0xbeb68a20	-0.35652256
46	0x3e2ee6f0	0.17080283
47	0xbe65f7eb	-0.22457854
48	0xbe625632	-0.22103193
49	0x3ef878a5	0.48529544
50	0xbebd9b8b	-0.37032732
51	0xbe83e953	-0.2576395
52	0x3ece5a2e	0.40303177
53	0x3ea8e782	0.32989126
54	0xbf0127c7	-0.5045132
55	0x3e62ef3c	0.22161573
56	0x3e55a1ec	0.2086255
57	0x3e2d68b8	0.16934478
58	0x3e9b0cb8	0.3028314
59	0xbea90a46	-0.3301565
60	0x3cf7c682	0.030246023
61	0x3de193ed	0.11014543
62	0xbe9cd3e2	-0.30630404
63	0x3e748ac0	0.23881054
64	0x3e0e3e04	0.13890845
65	0xbdaf32cc	-0.085546106
66	0xbe654bee	-0.22392246
67	0x3eb43811	0.35199025
68	0x3e9a8620	0.30180454
69	0xbe29acd4	-0.16569835
70	0x3ec3e0e8	0.38257527
71	0xbe89f12a	-0.26941806
72	0xbd9d3118	-0.076753795
73	0xbe471360	-0.19440985
74	0x3ecf984c	0.4054588
75	0x3eada848	0.3391745
76	0xbde46d5c	-0.11153671
77	0x3e9377bc	0.28802288
78	0x3e9719b1	0.29511788
79	0x3d31e0e8	0.043427378
80	0xbdb2923c	-0.08719298
81	0x3eb2b69c	0.34904945
82	0x3e7b1c50	0.24522519
83	0xbe82f306	-0.25576037
84	0xbd3e03e7	-0.04639044
85	0x3e96e55c	0.29471862
86	0xbd08f070	-0.033432424
87	0xbecad286	-0.39613742
88	0xbe491575	-0.19637091
89	0x3e79cb48	0.24393952
90	0xbe3af50f	-0.18257545
91	0xbeeb17ac	-0.45916498
92	0x3e1ec484	0.15504652
93	0xbdbba998	-0.09163207
94	0x3e1c2718	0.15249288
95	0x3e6a4f1c	0.2288174
96	0xbefebb50	-0.49752283
97	0xbe80271c	-0.25029838
98	0xbe4ab1c3	-0.19794373
99	0xbe2e98af	-0.17050432
100	0x3d333e90	0.043760836
101	0xbead8ff7	-0.338989
102	0x3d1aa60d	0.037756015
103	0xbd3ede95	-0.04659899
104	0x3e9c3fd6	0.30517453
105	0x3e884daa	0.26621753
106	0x3e9ef240	0.31044197
107	0x3d85698c	0.06514272
108	0x3c7993c3	0.015232983
109	0x3eb49ed5	0.3527743
110	0xbe7a314c	-0.24432868
111	0xbd98067c	-0.07423112
112	0x3e45efd8	0.19329774
113	0xbea73e90	-0.3266492
114	0xbe6e0f08	-0.23247921
115	0x3e9289f0	0.28620863
116	0xbec68df0	-0.38780165
117	0x3d0eb5b8	0.03484127
118	0x3cdc3750	0.026881844
119	0xbdf1abc4	-0.1180034
120	0x3dacaa3f	0.08430909
121	0x3ee08c9c	0.43857276
122	0x3c9e4030	0.019317716
123	0x3d2eb4f8	0.042653054
124	0xbd094ae8	-0.0335187
125	0xbeb764a5	-0.35818973
126	0x3e9b85f9	0.3037565
127	0xbe08991e	-0.1333966
128	0x3e9529c8	0.2913344
129	0x3d42e150	0.047578156
130	0x3e40a65c	0.18813461
131	0x3ec594a6	0.38589972
132	0xbdd4a235	-0.10382501
133	0x3e427606	0.18990335
134	0xbeb1ea5b	-0.34749112
135	0x3eb89462	0.36050707
136	0x3ecbb5ce	0.39787143
137	0x3eca52a0	0.39516163
138	0x3ef3a108	0.47583795
139	0x3ec3132b	0.38100561
140	0xbe89340e	-0.26797527
141	0x3e88f74c	0.26751173
142	0xbd227070	-0.03965801
143	0x3caa6070	0.020797938
144	0xbe53c351	-0.20679976
145	0xbe487ea3	-0.19579558
146	0xbe1271fe	-0.14301297
147	0x3bdeb300	0.006796241
148	0x3e605b5c	0.21909851
149	0xbd5fc1c8	-0.054628164
150	0x3e0270c1	0.12738325
151	0xbd9d0b5a	-0.07668181
152	0x3ec87bc8	0.39156938
153	0xbda15f90	-0.07879555
154	0xbd713508	-0.058888465
155	0x3d5f9cc8	0.054592878
156	0x3e6062ed	0.21912737
157	0xbe906878	-0.28204703
158	0x3ca47840	0.02007687
159	0xbeca53e4	-0.39517128
160	0x3decb120	0.115572214
161	0x3e9f39fa	0.3109892
162	0xbcb51dab	-0.022108873
163	0xbc346390	-0.011010066
164	0x3e9a74a2	0.3016711
165	0xbe312157	-0.17297874
166	0xbeaf4f3f	-0.34240147
167	0x3e5967e8	0.21231043
168	0xbea8c3e2	-0.32961947
169	0x3eb249fd	0.34822074
170	0x3d2e4f50	0.042556107
171	0xbe1aa802	-0.15103152
172	0xbe07052c	-0.13185567
173	0xbea48f97	-0.321408
174	0xbd100ef5	-0.035170514
175	0xbe802a23	-0.25032148
176	0x3ebdf640	0.37101936
177	0xbd5bc5b8	-0.053655356
178	0x3e928c1a	0.28622514
179	0x3c444d60	0.011981338
180	0xbf1fa515	-0.6236127
181	0x3d415325	0.047198433
182	0xbea49f9a	-0.32153016
183	0xbe8d77aa	-0.2763036
184	0xbc563d40	-0.013076127
185	0xbe4948cf	-0.1965668
186	0xbdf1e3f4	-0.11811057
187	0x3e62b9d9	0.22141208
188	0xbe8c319b	-0.27381596
189	0x3ec595fc	0.38590991
190	0x3ed0e83e	0.40802187
191	0x3e2fa3d0	0.17152333
192	0xbe888f66	-0.26671904
193	0xbed0e2a1	-0.40797904
194	0x3ec70e0e	0.3887791
195	0x3ecc61f8	0.39918494
196	0x3e9ba7f4	0.30401576
197	0x3e051e84	0.12999922
198	0x3cc0414d	0.023468638
199	0xbed6b21d	-0.41932765
200	0x3e81f282	0.2538033
201	0xbc85e040	-0.016342282
202	0xbe8b89fa	-0.27253705
203	0x3ddc3988	0.10753161
204	0xbeca6fa8	-0.39538312
205	0xbee18592	-0.4404722
206	0xbec02e75	-0.37535444
207	0xbda6cda8	-0.081446946
208	0xbcebfb20	-0.02880627
209	0x3e73fda4	0.23827225
210	0xbe039b87	-0.12852298
211	0xbe904675	-0.28178754
212	0x3df3f2f0	0.11911571
213	0x3dfc14f8	0.12308687
214	0xbdca63a8	-0.09882289
215	0xbe685d7e	-0.22691914
216	0xbe1d325b	-0.1535124
217	0x3e29d345	0.16584499
218	0x3c4cedc0	0.012507856
219	0x3e949b8e	0.2902493
220	0xbdff2120	-0.1245749
221	0xbeabb0aa	-0.3353322
222	0x3c58fce0	0.013243884
223	0x3e607490	0.21919465
224	0xbe1dc732	-0.15408018
225	0x3eb75dc4	0.35813725
226	0x3e0d4e1c	0.13799328
227	0xbe20ea14	-0.15714294
228	0x3e959f8a	0.2922328
229	0xbe0fef41	-0.14056112
230	0xbe0ebb62	-0.13938668
231	0x3e411b88	0.18858159
232	0xbd806b04	-0.062704116
233	0xbe11f6bc	-0.14254278
234	0xbe8f5771	-0.279964
235	0xbe89d285	-0.26918426
236	0x3d5f1d28	0.054471165
237	0x3ea99148	0.33118653
238	0x3dc7b068	0.09750444
239	0xbd18a2a8	-0.037264496
240	0x3e2ee360	0.17078924
241	0xbd7dd938	-0.061974734
242	0x3eb5901e	0.35461515
243	0x3eb1ad1c	0.34702384
244	0x3e266288	0.16248524
245	0xbecee03f	-0.4040546
246	0x3d50f10a	0.051011123
247	0x3ecd304c	0.4007591
248	0xbd6d1298	-0.05787906
249	0xbaefd400	-0.0018297434
250	0xbe3ea055	-0.1861585
251	0xbebc156c	-0.36735094
252	0x3f05b209	0.52224785
253	0x3c740eaa	0.014896074
254	0xbe5a75d2	-0.21334007
255	0xba9e5300	-0.0012079179

fc1.bias f4 [64]
0	0x3e44879f	0.1919236
1	0x3e80fc65	0.25192562
2	0x3cf6c099	0.030121135
3	0x3e902be6	0.28158492
4	0x3d85bfcd	0.06530724
5	0x3d8190c6	0.063264415
6	0x3e2f6eff	0.17132185
7	0x3db1b082	0.08676244
8	0x3d9a282b	0.07527193
9	0xbe84d508	-0.2594378
10	0x3e8a7141	0.2703953
11	0xbe11aa88	-0.14225209
12	0xbe18e251	-0.14930083
13	0x3e233692	0.15938786
14	0x3e845ac7	0.25850508
15	0x3e3ab078	0.1823138
16	0xbe0719fd	-0.13193507
17	0x3db270be	0.0871291
18	0x3da0f913	0.07860007
19	0x3cf7724c	0.030205868
20	0x3d5e5f64	0.05429019
21	0xbe5c0714	-0.21487075
22	0x3e7cc3f2	0.24684122
23	0xbe47ce09	-0.1951219
24	0xbecf8bdf	-0.405364
25	0x3daa2df0	0.08309543
26	0xbe957891	-0.29193547
27	0x3e45696f	0.19278501
28	0xbea84d82	-0.32871634
29	0x3e4349d1	0.19071127
30	0xbe4cc32c	-0.19996327
31	0xbe28609c	-0.16443104
32	0xbde9e66e	-0.11420904
33	0x3e571c3b	0.21006863
34	0x3ddd4026	0.10803251
35	0x3e660aae	0.22465011
36	0xbd99caa7	-0.07509356
37	0xbe82624b	-0.25465617
38	0x3e7a8eb9	0.24468507
39	0x3daada7b	0.08342453
40	0xbe8b6af4	-0.27230036
41	0x3d200f7d	0.03907727
42	0x3e2ad9f8	0.16684711
43	0xbe1e43ca	-0.15455547
44	0x3e806490	0.25076723
45	0x3e861e28	0.26194882
46	0x3e801131	0.25013116
47	0x3dda9b58	0.10674161
48	0x3d0c8aa3	0.0343119
49	0xbecca3a4	-0.39968598
50	0xbea08000	-0.31347656
51	0xbe2ee042	-0.17077735
52	0x3e273d7b	0.16332047
53	0x3d6b80d6	0.057495914
54	0xbdca3179	-0.098727174
55	0xbb11fa1b	-0.0022274319
56	0xbd33bcc9	-0.04388121
57	0xbe2beebc	-0.16790289
58	0xbec9bed0	-0.3940339
59	0x3e7c5614	0.24642211
60	0x3dbf7f41	0.09350444
61	0x3e31bc82	0.17357066
62	0x3db73aef	0.089467876
63	0x3e8b7c8c	0.2724346

fc2.weight f4 [32, 64]
0	0x3d941725	0.07230977
1	0x3c29f81d	0.010374096
2	0xbe75591a	-0.23959771
3	0xbcb10754	-0.02160994
4	0x3da57759	0.080794044
5	0x3d3571e8	0.044298083
6	0x3d41f3ec	0.047351763
7	0x3eadde45	0.3395864
8	0x3d88e19a	0.06683655
9	0x3d7c2a44	0.061563745
10	0xbd3f1399	-0.04664955
11	0x3e93f4d2	0.2889772
12	0xbe3dec06	-0.18547067
13	0xbd849822	-0.064743295
14	0x3d061d57	0.032742824
15	0xbd90bf7b	-0.07067772
16	0x3da9007a	0.08252044
17	0xbc06209b	-0.008186485
18	0x3d8aa9ca	0.06770666
19	0xbda72a9a	-0.081624225
20	0xbcc30d09	-0.023809927
21	0x3dc80319	0.09766216
22	0x3d571f72	0.052520223
23	0xbeb0cc1d	-0.34530726
24	0xbd0f0118	-0.034913152
25	0x3dce1490	0.10062516
26	0xbd762a04	-0.060098663
27	0x3b78441e	0.0037882398
28	0xbebf9de5	-0.3742515
29	0x3d3721c2	0.04470993
30	0xbe8210db	-0.25403485
31	0xbeabf067	-0.3358185
32	0xbd4bc3bd	-0.049747217
33	0x3cf09ae2	0.029370729
34	0xbe0b6886	-0.13614091
35	0x3d921553	0.071329735
36	0x3e374d7b	0.1790065
37	0x3bf77680	0.007551968
38	0x3d85ffa4	0.065429
39	0xbc8de6f3	-0.01732204
40	0xbdcbfb46	-0.09960036
41	0x3e4069d5	0.18790372
42	0xbdda6c51	-0.10665191
43	0x3e6e7995	0.23288567
44	0xbdebf67f	-0.11521625
45	0xbbff9507	-0.007799748
46	0xbb69ea25	-0.003569254
47	0x3dc6ed99	0.09713287
48	0xbd9ae327	-0.07562857
49	0xbb757cc0	-0.003745839
50	0x3d4badb0	0.04972619
51	0x3eca2011	0.3947759
52	0xbdb74814	-0.08949295
53	0x3d4e8206	0.05041697
54	0x3f2643fd	0.6494749
55	0xbeae879d	-0.3408784
56	0xbe3aefbe	-0.18255517
57	0x3e864741	0.26226237
58	0xbd37e784	-0.044898525
59	0x3ced3436	0.02895556
60	0x3dc84152	0.09778084
61	0xbded0b94	-0.11574474
62	0xbdb6bd0a	-0.08922775
63	0xbda2c4a1	-0.0794766
64	0xbe03f3c0	-0.12885952
65	0xbe08c2e4	-0.13355595
66	0x3ca8f98b	0.020626804
67	0x3da09080	0.07840061
68	0x3dc93ca3	0.09826019
69	0xbd9dbae8	-0.07701665
70	0xbb94b5a1	-0.0045382534
71	0x3c0bad50	0.008525208
72	0xbe06f27a	-0.13178435
73	0xbda134d6	-0.07871406
74	0xbe01697c	-0.12637895
75	0xbd280230	-0.04101771
76	0xbd468c31	-0.04847354
77	0xbe053a77	-0.13010584
78	0xbd9cdf25	-0.07659749
79	0xbd9dc42a	-0.07703431
80	0x3dc47e92	0.09594454
81	0x3c50408b	0.012710701
82	0xbd2e478e	-0.04254871
83	0xbd59616e	-0.05307143
84	0x3be534f7	0.0069948393
85	0xbc7f8c70	-0.015597448
86	0xbd8de87a	-0.06929107
87	0xbcf75288	-0.030190721
88	0x3d2316a4	0.039816514
89	0xbd60cad8	-0.054880947
90	0xbd067478	-0.032825917
91	0xbe0fa93e	-0.14029405
92	0x3d1d9d7f	0.038480278
93	0x3c7501a9	0.014954009
94	0xbdbe4b66	-0.09291725
95	0xbd13a51d	-0.036046136
96	0x3dd13bde	0.10216497
97	0x3bfbc43d	0.0076833055
98	0x3dbd9611	0.092571385
99	0x3db1774c	0.08665332
100	0xbbcd0ef6	-0.006257887
101	0xbd324a2c	-0.043527767
102	0xbb4b52e9	-0.003102476
103	0xbd6d88d7	-0.05799183
104	0x3dca2ad8	0.09871453
105	0xbe06964f	-0.13143276
106	0xbcbc698b	-0.022999546
107	0xbde0cdb4	-0.10976735
108	0x3dbc532a	0.0919555
109	0x3d9a6ccc	0.075402826
110	0xbd89c7b1	-0.06727541
111	0xbd4ce004	-0.050018325
112	0xbd591be9	-0.053005133
113	0x3c123ae0	0.00892517
114	0x3d8db7aa	0.06919797
115	0x3cb20f11	0.0217357
116	0xbd1fecd7	-0.039044227
117	0x3cb16752	0.021655712
118	0x3db55b7b	0.08855339
119	0x3b859a7d	0.0040772543
120	0x3d583f0c	0.0527945
121	0xbd09ee13	-0.03367431
122	0xbdfa7774	-0.12229815
123	0x3d87a9e4	0.06624201
124	0x3da320b2	0.079652205
125	0x3dacf236	0.084446356
126	0xbddc6a12	-0.10762419
127	0x3b6c9753	0.0036100938
128	0x3db62b67	0.08894997
129	0x3c418ec5	0.011813824
130	0xbe2eb1a6	-0.17059955
131	0x3df571f5	0.11984626
132	0x3cb1a019	0.021682786
133	0x3c857f7a	0.016296137
134	0x3dcec486	0.100960776
135	0x3e519783	0.20467953
136	0xbdbb35f6	-0.091411516
137	0xbcc5bad9	-0.024136947
138	0x3da6a835	0.08137552
139	0x3d7a3cb6	0.061093055
140	0x3cf5a349	0.029985087
141	0x3d4690f1	0.04847807
142	0xbdab6064	-0.083679944
143	0xbd63e470	-0.055637777
144	0x3dcadd71	0.09905518
145	0xbd9d1fb9	-0.07672066
146	0x3c92bce3	0.017912334
147	0x3c39e873	0.011346924
148	0x3d5d7c48	0.054073602
149	0x3daf5ad3	0.08562245
150	0xbd811e59	-0.063046165
151	0x3b11a26b	0.0022222053
152	0x3cb00ee8	0.021491483
153	0xbdb70fbf	-0.0893855
154	0xbd05c2c2	-0.03265644
155	0xbd5af470	-0.05345577
156	0xbe19a543	-0.15004449
157	0xbd47c888	-0.048775226
158	0xbe67b98e	-0.22629377
159	0xbe7b828e	-0.24561521
160	0x3ddd4af9	0.108053155
161	0xbc6b960e	-0.014379038
162	0x3d3af031	0.04563922
163	0xbd3f298c	-0.04667048
164	0x3d3e53ea	0.046466745
165	0x3d936b4a	0.07198198
166	0xbcd6d42a	-0.026224215
167	0xbc96e84e	-0.018421318
168	0xbcbbeec0	-0.022940993
169	0x3dc5af70	0.09652603
170	0xbe1d20ad	-0.15344496
171	0x3dcc32dd	0.09970639
172	0x3d578f0b	0.05262665
173	0xbd9dfca6	-0.077142045
174	0x3dd62d03	0.10457804
175	0x3e1b9871	0.1519487
176	0xbd906022	-0.07049586
177	0xb8bf8800	-9.132922e-05
178	0xbdf050ab	-0.11734136
179	0xbd1828a7	-0.037148144
180	0x3dd53274	0.10410014
181	0x3d86f258	0.06589192
182	0x3e3e400e	0.18579122
183	0xbde25de9	-0.11053068
184	0xbdcebffa	-0.100952104
185	0x3d927f8a	0.071532324
186	0x3dea8d38	0.114527166
187	0x3d966f1a	0.0734541
188	0x3e0c61fa	0.1370925
189	0x3dbd1025	0.09231595
190	0xbd831782	-0.06400968
191	0x3c760b8e	0.015017403
192	0x3d1275fb	0.035757046
193	0x3dac068c	0.08399686
194	0x3dca06c5	0.098645724
195	0x3d68265d	0.05667721
196	0xbd892545	-0.06696562
197	0xbcc556b4	-0.024089195
198	0x3df543ee	0.11975847
199	0x3e3518d6	0.17685255
200	0xbef2f128	-0.47449613
201	0xbd624214	-0.0552388
202	0x3df9cfad	0.12197814
203	0x3db75376	0.08951466
204	0x3e026785	0.12734802
205	0xbcfe36c7	-0.03103198
206	0x3de8cdf8	0.113674104
207	0x3d8157d5	0.06315581
208	0xbf4fd649	-0.8118635
209	0xbd72038c	-0.059085414
210	0xbe821a59	-0.25410727
211	0xbf1ba1cc	-0.6079376
212	0xbee57ce0	-0.44821835
213	0xbd1c06e0	-0.038092494
214	0xbdb8a8ec	-0.09016594
215	0xbdd1b1c7	-0.102389865
216	0x3cc8e490	0.02452305
217	0xbd944c0e	-0.07241069
218	0x3c90ccbe	0.017675754
219	0xbd0f5e29	-0.035001907
220	0xbdee7c84	-0.11644843
221	0x3e15eaa2	0.14640287
222	0xbd531a4c	-0.05153875
223	0x3dc1b97a	0.09459205
224	0xbcb8a769	-0.022540765
225	0x3e12cc66	0.14335784
226	0xbe382f4d	-0.17986794
227	0x3dbecedd	0.093168
228	0x3c2b9134	0.010471631
229	0x3de35412	0.111000195
230	0xbc8a8a25	-0.016911576
231	0xbe0181de	-0.12647197
232	0xbd95be0c	-0.07311639
233	0xbedd766d	-0.43254414
234	0x3e206cd8	0.1566652
235	0x39b8c57c	0.00035242352
236	0x3da3100f	0.07962047
237	0xbd4bc0f0	-0.049744546
238	0xbe01d1dd	-0.12677713
239	0xbdfdeb51	-0.12398399
240	0x3dd443db	0.10364505
241	0x3df55552	0.11979164
242	0xbc710320	-0.014710218
243	0xbef55d7d	-0.47922888
244	0x3e10e44f	0.14149593
245	0xbecd68db	-0.4011906
246	0xbf42191b	-0.7581956
247	0x3dc635f3	0.09678259
248	0xbc669685	-0.014073973
249	0x3d83b4da	0.06430979
250	0x3cf0a608	0.029376045
251	0x3d02f8ab	0.03197543
252	0xbe55ee6d	-0.20891733
253	0x3e05680d	0.13027973
254	0x3e211057	0.1572889
255	0xbd8ad6e2	-0.06779267

fc2.bias f4 [32]
0	0x3d72454e	0.059148125
1	0x3c64e2ed	0.013970119
2	0xbd748f2b	-0.059706848
3	0xbd75f7ad	-0.060050655
4	0xbe0f6fb7	-0.1400746
5	0xbdd0c380	-0.10193539
6	0xbcfa6756	-0.030566853
7	0xbd4cb895	-0.04998072
8	0xbd93db38	-0.07219547
9	0xbdc2ae30	-0.0950588
10	0x3c928ffe	0.017890926
11	0x3cb14bf9	0.021642672
12	0xbd55a6cc	-0.052161023
13	0x3d0be334	0.034152225
14	0xbca4fd80	-0.02014041
15	0x3db19448	0.086708605
16	0x3cb3124c	0.02185931
17	0x3dbb5388	0.09146792
18	0x3d5cbcb9	0.053890917
19	0xbdd0b025	-0.10189847
20	0x3d8d1220	0.06888223
21	0x3ddec445	0.10877279
22	0xbdd0a656	-0.10187976
23	0x3d4cbead	0.04998653
24	0x3dd3391c	0.10313627
25	0xbdb3ab56	-0.08772914
26	0x3c858cb2	0.01630244
27	0x3d047a05	0.03234293
28	0xbdef6e80	-0.11690998
29	0xbbc98c29	-0.0061507416
30	0x3db370bc	0.08761737
31	0xbd9e821c	-0.0773966

fc3.weight f4 [4, 32]
0	0x3ddb7891	0.107163556
1	0xbd411464	-0.047138587
2	0x3d50639b	0.05087624
3	0xbe435e4a	-0.19078937
4	0x3d5d4855	0.05402406
5	0x3e31a603	0.17348485
6	0x3c841e75	0.016127804
7	0xbdf31625	-0.11869458
8	0xbeb5cb12	-0.35506493
9	0x3d903d6c	0.07042965
10	0x3e17da8c	0.14829463
11	0xbe03b15e	-0.12860629
12	0x3d78a6c4	0.060705915
13	0xbd7c2d0a	-0.06156639
14	0xbe019b2e	-0.12656853
15	0xbd711bd7	-0.05886444
16	0x3d234f6a	0.039870657
17	0x3de9f3d4	0.1142346
18	0xbd37c40b	-0.044864696
19	0x3e15d765	0.14632948
20	0x3e201f16	0.15636858
21	0x3dfefb49	0.124502726
22	0xbe244bb0	-0.16044497
23	0x3df87eb3	0.12133541
24	0x3de4190b	0.11137589
25	0xbe093637	-0.13399588
26	0x3d93a14e	0.07208501
27	0x3d327309	0.043566737
28	0x3e138f6e	0.14410183
29	0xbc33b8a7	-0.0109693175
30	0x3c099790	0.008397952
31	0xbdd213f7	-0.10257714
32	0x3ddf3f87	0.10900789
33	0x3e07d43d	0.13264556
34	0x3b01d857	0.0019812786
35	0xbe5df591	-0.21675707
36	0x3e1cf53b	0.15327923
37	0xbcdc32d0	-0.026879698
38	0x3c0fc870	0.008775815
39	0xbaeec3a4	-0.0018216264
40	0xbead889a	-0.3389328
41	0x3defc6ea	0.11707862
42	0x3d50b842	0.050956972
43	0xbd211542	-0.039326914
44	0x3e0c4c1f	0.13700913
45	0x3c866f10	0.01641038
46	0x3cefca10	0.029271156
47	0xbdb64813	-0.08900466
48	0xbb7869a7	-0.003790477
49	0x3c9b062f	0.018923847
50	0x3d893e46	0.06701331
51	0x3e09913a	0.13434306
52	0x3c43cac8	0.011950202
53	0xbbc650bb	-0.0060521043
54	0xbcf88b07	-0.03033973
55	0x3d844512	0.064584866
56	0x3d0c0fc3	0.03419472
57	0x3d0751d6	0.03303703
58	0x3df8470a	0.121229246
59	0xbd6cf47e	-0.057850353
60	0xbdccb5dc	-0.099956244
61	0x3de4cdc0	0.11172056
62	0x3d412646	0.04715564
63	0xbe2891c0	-0.16461849
64	0x3e05917d	0.1304378
65	0x3d586603	0.05283166
66	0x3dbeec0a	0.09322365
67	0xbd805219	-0.06265659
68	0x3e317b0b	0.17332093
69	0x3e2f2e75	0.17107566
70	0xbe2b9daa	-0.16759363
71	0xbe2abb1d	-0.1667294
72	0xbea93e40	-0.33055305
73	0x3d92042e	0.071297035
74	0x3e04df3b	0.1297578
75	0xbdb6d965	-0.089281835
76	0xbcaa3690	-0.02077797
77	0xbd86cb90	-0.06581795
78	0x3d4abc40	0.049495935
79	0x3c6fdf7c	0.014640685
80	0xbc055e1f	-0.008140116
81	0xbc248c39	-0.010043197
82	0x3de8f0e7	0.113740735
83	0x3df93a71	0.1216935
84	0x3c8f881d	0.017520959
85	0x3a28f292	0.0006444837
86	0x393e00d0	0.00018120115
87	0x3d9ae528	0.07563239
88	0xbd6ce1b3	-0.05783243
89	0xbe0ba80b	-0.13638322
90	0x3e1ce089	0.15320028
91	0x3d37038b	0.044681113
92	0xbe1ffa52	-0.15622833
93	0xbe06fc73	-0.13182239
94	0x3d3ebe97	0.04656848
95	0xbe1910e1	-0.14947845
96	0x3de7b99f	0.11314701
97	0xbda79d81	-0.08184338
98	0x3da7834b	0.08179339
99	0xbe055669	-0.13021244
100	0x3e0a39e5	0.13498648
101	0xbd0c75e8	-0.03429213
102	0xbd7faaa4	-0.062418595
103	0x3cd6e001	0.02622986
104	0xbe928ba6	-0.28622168
105	0x3d2933ec	0.041309282
106	0x3e22dcf1	0.15904595
107	0xbdc1ddf1	-0.0946616
108	0xbc1ecdf0	-0.009692654
109	0xbd93d356	-0.072180435
110	0xbc36f4c0	-0.011166751
111	0xbc1c97bb	-0.00955766
112	0x3ceb0670	0.028689593
113	0x3d9acc57	0.07558506
114	0x3db54b4a	0.08852251
115	0x3d96e337	0.073675565
116	0xbd28e800	-0.041236877
117	0x3df392c1	0.118932255
118	0xbd28ff67	-0.041259196
119	0x3dd023ba	0.10163064
120	0xbca358b7	-0.019939763
121	0x3d89d24f	0.06729566
122	0x3cfc0848	0.030765668
123	0x3c197198	0.009365462
124	0xbdd16b51	-0.10225547
125	0xbdf7044a	-0.12061365
126	0x3db28ba9	0.08718044
127	0xbe18b0bb	-0.14911167

fc3.bias f4 [4]
0	0x3a3309ae	0.00068297505
1	0x3dc7276a	0.097243145
2	0x3dac3bdf	0.08409857
3	0x3d85c27d	0.06531236
