model_ep0_0.0002.pth (torch, 13282 bytes, 6 tensors)

fc1.weight f4 [64, 6]
-0.02069103 -0.29245934 0.0129475 0.0049619377 -0.29929996 0.10727596 0.067226864 -0.23122397
0.14258575 -0.18969084 0.40629685 -0.27543005 -0.39488575 -0.27061543 0.07135674 -0.0504058
0.17723918 0.2728243 -0.26661912 0.32292265 0.058895767 0.055327177 0.35699588 -0.106818825
0.40095913 -0.13491198 -0.16557722 -0.08969292 -0.12253395 -0.04356703 0.39013794 -0.059164274
-0.10344267 -0.011667192 0.202551 0.16325778 0.21109913 -0.20566086 0.2899713 -0.37591046
-0.034137458 -0.31620687 0.41970602 -0.22835979 -0.03828296 -0.35652256 0.17080283 -0.22457854
-0.37209573 0.41210127 -0.37032732 -0.2576395 0.40303177 0.32989126 -0.36888266 0.25310093
0.2086255 0.16934478 0.3028314 -0.3301565 -0.053102497 0.28223872 -0.30630404 0.23881054
0.13890845 -0.085546106 -0.06400275 0.23293543 0.30180454 -0.16569835 0.38257527 -0.26941806
-0.085781276 -0.11445668 0.4054588 0.3391745 -0.11153671 0.28802288 0.263254 0.09201909
-0.08719298 0.34904945 0.24522519 -0.25576037 -0.22180057 0.33145872 -0.033432424 -0.39613742
-0.19637091 0.24393952 -0.14226611 -0.39815906 0.15504652 -0.09163207 0.15249288 0.2288174
-0.31137967 -0.16557878 -0.19794373 -0.17050432 0.043760836 -0.338989 0.032015953 -0.037084505
0.30517453 0.26621753 0.31044197 0.06514272 -0.113068454 0.31209958 -0.24432868 -0.07423112
0.19329774 -0.3266492 -0.36620155 0.20214829 -0.38780165 0.03484127 0.026881844 -0.1180034
0.032756485 0.29182902 0.019317716 0.042653054 -0.0335187 -0.35818973 0.31643897 -0.14608735
0.2913344 0.047578156 0.18813461 0.38589972 -0.13181637 0.29431218 -0.34749112 0.36050707
0.39787143 0.39516163 0.38857508 0.22769976 -0.26797527 0.26751173 -0.03965801 0.020797938
-0.20679976 -0.19579558 -0.14301297 0.006796241 0.21909851 -0.054628164 0.029332398 -0.06614909
0.39156938 -0.07879555 -0.058888465 0.054592878 0.33217567 -0.30547976 0.02007687 -0.39517128
0.115572214 0.3109892 0.020296229 0.08342478 0.3016711 -0.17297874 -0.34240147 0.21231043
-0.36597067 0.037287325 0.042556107 -0.15103152 -0.13185567 -0.321408 -0.07404731 -0.3007089
0.37101936 -0.053655356 0.28622514 0.011981338 -0.40203732 0.22278464 -0.32153016 -0.2763036
-0.013076127 -0.1965668 -0.15359828 0.084100455 -0.27381596 0.38590991 0.40802187 0.17152333
-0.1669183 -0.3389806 0.3887791 0.39918494 0.30401576 0.12999922 -0.09211391 -0.41000322
0.2538033 -0.016342282 -0.27253705 0.10753161 -0.29270455 -0.35264117 -0.37535444 -0.081446946
-0.02880627 0.23827225 -0.24458824 -0.17053537 0.11911571 0.12308687 -0.09882289 -0.22691914
-0.017671894 0.10961423 0.012507856 0.2902493 -0.1245749 -0.3353322 0.013243884 0.21919465
-0.15408018 0.35813725 0.13799328 -0.15714294 0.34201714 -0.11111432 -0.13938668 0.18858159
-0.062704116 -0.14254278 -0.3786166 -0.15762638 0.054471165 0.33118653 0.09750444 -0.037264496
0.17078924 -0.061974734 0.35461515 0.34702384 0.16248524 -0.4040546 0.03882408 0.37615618
-0.05787906 -0.0018297434 -0.1861585 -0.36735094 0.27757785 -0.03197536 -0.21334007 -0.0012079179
00000000: 3c80 a9bc 3bbd 95be c021 543c c097 a23b
00000010: d83d 99be 80b3 db3d 3dae 893d fac5 6cbe
00000020: 0002 123e 513e 42be 2406 d03e 2b05 8dbe
00000030: 772e cabe 1b8e 8abe 7c23 923d 5076 4ebd
00000040: 307e 353e a0af 8b3e 4d82 88be 1e56 a53e
00000050: b03c 713d c09e 623d 2ac8 b63e d4c3 dabd
00000060: 844a cd3e 5e26 0abe 138d 29be ecb0 b7bd
00000070: 14f3 fabd 5873 32bd 29c0 c73e 3d56 72bd
00000080: c0d9 d3bd c027 3fbc 8869 4f3e 0c2d 273e
00000090: 5f2a 583e c398 52be 1e77 943e 5677 c0be
000000a0: b8d3 0bbd dee5 a1be b5e3 d63e 26d7 69be
000000b0: 98ce 1cbd 208a b6be f0e6 2e3e ebf7 65be
000000c0: 5583 bebe f0fe d23e 8b9b bdbe 53e9 83be
000000d0: 2e5a ce3e 82e7 a83e 30de bcbe 7296 813e
000000e0: eca1 553e b868 2d3e b80c 9b3e 460a a9be
000000f0: 0182 59bd 9881 903e e2d3 9cbe c08a 743e
00000100: 043e 0e3e cc32 afbd e013 83bd a086 6e3e
00000110: 2086 9a3e d4ac 29be e8e0 c33e 2af1 89be
00000120: 18ae afbd 4468 eabd 4c98 cf3e 48a8 ad3e
00000130: 5c6d e4bd bc77 933e 3ac9 863e 8174 bc3d
00000140: 3c92 b2bd 9cb6 b23e 501c 7b3e 06f3 82be
00000150: b01f 63be f5b4 a93e 70f0 08bd 86d2 cabe
00000160: 7515 49be 48cb 793e 35ae 11be 81db cbbe
00000170: 84c4 1e3e 98a9 bbbd 1827 1c3e 1c4f 6a3e
00000180: 286d 9fbe 7c8d 29be c3b1 4abe af98 2ebe
00000190: 903e 333d f78f adbe 2923 033d ece5 17bd
000001a0: d63f 9c3e aa4d 883e 40f2 9e3e 8c69 853d
000001b0: 6f90 e7bd 84cb 9f3e 4c31 7abe 7c06 98bd
000001c0: d8ef 453e 903e a7be c57e bbbe f6ff 4e3e
000001d0: f08d c6be b8b5 0e3d 5037 dc3c c4ab f1bd
000001e0: aa2b 063d 9d6a 953e 3040 9e3c f8b4 2e3d
000001f0: e84a 09bd a564 b7be 4a04 a23e ec97 15be
00000200: c829 953e 50e1 423d 5ca6 403e a694 c53e
00000210: dffa 06be 16b0 963e 5bea b1be 6294 b83e
00000220: ceb5 cb3e a052 ca3e 50f3 c63e 202a 693e
00000230: 0e34 89be 4cf7 883e 7070 22bd 7060 aa3c
00000240: 51c3 53be a37e 48be fe71 12be 00b3 de3b
00000250: 5c5b 603e c8c1 5fbd 7f4a f03c 2d79 87bd
00000260: c87b c83e 905f a1bd 0835 71bd c89c 5f3d
00000270: ee12 aa3e d867 9cbe 4078 a43c e453 cabe
00000280: 20b1 ec3d fa39 9f3e 4744 a63c 9cda aa3d
00000290: a274 9a3e 5721 31be 3f4f afbe e867 593e
000002a0: 8260 bbbe 98ba 183d 504f 2e3d 02a8 1abe
000002b0: 2c05 07be 978f a4be 1ea6 97bd 84f6 99be
000002c0: 40f6 bd3e b8c5 5bbd 1a8c 923e 604d 443c
000002d0: d6d7 cdbe a821 643e 9a9f a4be aa77 8dbe
000002e0: 403d 56bc cf48 49be de48 1dbe dc3c ac3d
000002f0: 9b31 8cbe fc95 c53e 3ee8 d03e d0a3 2f3e
00000300: a1ec 2abe dd8e adbe 0e0e c73e f861 cc3e
00000310: f4a7 9b3e 841e 053e 38a6 bcbd f1eb d1be
00000320: 82f2 813e 40e0 85bc fa89 8bbe 8839 dc3d
00000330: 5fdd 95be 628d b4be 752e c0be a8cd a6bd
00000340: 20fb ebbc a4fd 733e 5775 7abe d3a0 2ebe
00000350: f0f2 f33d f814 fc3d a863 cabd 7e5d 68be
00000360: a6c4 90bc 6d7d e03d c0ed 4c3c 8e9b 943e
00000370: 2021 ffbd aab0 abbe e0fc 583c 9074 603e
00000380: 32c7 1dbe c45d b73e 1c4e 0d3e 14ea 20be
00000390: df1c af3e e88f e3bd 62bb 0ebe 881b 413e
000003a0: 046b 80bd bcf6 11be 09da c1be cf68 21be
000003b0: 281d 5f3d 4891 a93e 68b0 c73d a8a2 18bd
000003c0: 60e3 2e3e 38d9 7dbd 1e90 b53e 1cad b13e
000003d0: 8862 263e 3fe0 cebe 0006 1f3d 8b97 c03e
000003e0: 9812 6dbd 00d4 efba 55a0 3ebe 6c15 bcbe
000003f0: af1e 8e3e 98f8 02bd d275 5abe 0053 9eba

fc1.bias f4 [64]
0.27769667 0.3579885 -0.0028083324 0.36060983 -0.03616231 -0.052363053 0.23088008 -0.021061508
0.10051505 -0.31594196 0.42327425 -0.090109706 -0.14003581 0.38776094 0.34583172 0.25814813
-0.18110812 0.24522823 0.20998567 0.07330105 0.11158647 -0.2021781 0.3349436 -0.24596249
-0.405364 0.2531299 -0.24270749 0.3351024 -0.3223061 0.25336808 -0.28689265 -0.10352227
-0.27558467 0.29134342 0.019149572 0.37404692 -0.022549324 -0.25465617 0.32305974 0.13446894
-0.27230036 -0.0024012483 0.16300298 -0.24653305 0.38545454 0.3808197 0.36277142 0.007052332
0.047366027 -0.39968598 -0.37804714 -0.16230509 0.29351154 0.15614419 -0.033879906 0.091031544
-0.08954483 -0.15817136 -0.3940339 0.3472474 0.1203185 0.29478103 0.14224756 0.3919829
00000000: 422e 8e3e 454a b73e 000c 38bb daa1 b83e
00000010: ee1e 14bd a47a 56bd d46b 6c3e 2f89 acbc
00000020: d6da cd3d 25c3 a1be 67b7 d83e 708b b8bd
00000030: 8c65 0fbe 9a88 c63e db10 b13e fe2b 843e
00000040: 6874 39be 1c1d 7b3e 7c06 573e dc1e 963d
00000050: 7287 e43d c707 4fbe ba7d ab3e 97dd 7bbe
00000060: df8b cfbe 3e9a 813e 5088 78be 8b92 ab3e
00000070: 4e05 a5be 76b9 813e 98e3 92be 7c03 d4bd
00000080: 6f19 8dbe f72a 953e 90df 9c3c 1483 bf3e
00000090: 5cb9 b8bc 4b62 82be 1668 a53e 3ab2 093e
000000a0: f46a 8bbe 435e 1dbb 41ea 263e 2973 7cbe
000000b0: 4c5a c53e cdfa c23e 2dbd b93e 4017 e73b
000000c0: e102 423d a4a3 ccbe 658f c1be 4e33 26be
000000d0: 2547 963e 43e4 1f3e a8c5 0abd bf6e ba3d
000000e0: 4863 b7bd acf7 21be d0be c9be 69ca b13e
000000f0: 8c69 f63d 8aed 963e 58a9 113e fcb1 c83e

fc2.weight f4 [32, 64]
0.10092958 0.03732529 -0.056060523 -0.016118262 -0.023909362 -0.014766129 0.09825424 0.121230386
0.07394933 0.0449896 -0.028162891 -0.06776519 0.034739137 -0.03692043 0.040629555 -0.04229131
0.102909476 0.014882441 0.06267257 -0.07950327 -0.10319123 0.107939884 0.071642995 0.019892097
-0.034913152 0.11939563 -0.011303067 0.023077883 -0.043064803 0.07960814 -0.04984507 0.059182018
-0.0731041 0.078075774 -0.1102086 0.08129264 -0.06492312 0.007551968 0.10834212 0.006972182
-0.09960036 0.09791516 0.11364877 -0.053886876 -0.08102065 0.0034317796 0.0023759657 -0.06986365
-0.08562903 -0.003745839 0.085058495 0.114567414 -0.039774142 -0.008593121 0.06449382 -0.041686237
-0.06027785 -0.060215354 -0.044898525 0.046405893 0.08797205 -0.10231874 -0.089075916 -0.08170062
-0.11035636 -0.11432219 0.02941075 0.09965731 0.10446105 -0.07073541 0.015955 0.026058888
-0.1266659 -0.07989837 -0.10464888 -0.043694153 -0.06457855 -0.10494558 -0.059926305 -0.060127873
0.0998414 0.031795103 -0.033107802 -0.047649033 0.015971955 -0.015597448 -0.04702945 -0.030190721
0.039816514 -0.03439095 -0.032825917 -0.12057984 0.032150224 0.03301232 -0.09185107 -0.04233648
0.094405174 0.026113266 0.10289724 0.104546115 -0.0098565 -0.043527767 0.018847808 -0.04752217
0.09871453 -0.12348771 -0.014521515 -0.10901064 0.1173405 0.09490276 -0.0475107 -0.039450914
-0.03490906 0.00892517 0.06919797 0.027831478 -0.018751768 0.030528363 0.094852954 0.009749172
0.0527945 -0.034122363 -0.12229815 0.08584683 0.09040729 0.10745449 -0.088782795 0.02180443
0.109401666 0.029814104 -0.112826094 0.13924818 0.015976802 0.031153006 0.13818693 0.013853974
-0.064563274 -0.02585508 0.1069188 -0.106341064 0.08830175 0.06672119 -0.06976057 -0.024935935
0.094074205 -0.07455502 0.001265039 0.042508885 0.0056238947 0.09578957 -0.040601097 -0.013911724
0.021491483 -0.0960218 0.008574918 -0.03491663 0.027737066 -0.026206315 -0.094357 0.035601407
-0.10065666 0.049844205 0.055650726 -0.045626592 -0.06850794 0.07198198 -0.0019329222 -0.01969695
-0.022940993 0.055555318 -0.050308842 -0.080075696 0.080627024 -0.059731092 0.12039948 0.08056338
-0.10218694 -9.132922e-05 -0.1107963 -0.09075689 0.14489166 0.028053263 0.07623837 0.064079955
0.12099092 -0.0985284 0.114527166 0.09344158 0.124286555 0.11342887 -0.07663729 0.012187521
0.0004819058 0.048111293 0.08398481 0.05861779 -0.07200873 -0.053246412 0.07155737 0.08391621
0.03808214 -0.0552388 0.10781325 0.09212929 -0.019714445 -0.07363189 0.10355247 0.033253454
-0.07136764 -0.09146519 -0.09622328 -0.0922727 -0.10782999 -0.047877878 -0.10109704 -0.079748705
0.02452305 -0.110339366 -0.03441377 -0.055969957 -0.11644843 0.11132852 -0.057773948 0.09459205
0.031740874 0.11185858 -0.09320006 0.077175826 0.015007898 0.111000195 -0.06748154 -0.10115349
-0.07311639 0.0061372225 0.09141581 0.0046063066 0.03512404 -0.05183324 -0.12148844 -0.08555265
0.021213522 0.11979164 -0.014710218 -0.080601655 0.09839559 -0.051376827 -0.00998037 0.08859425
-0.004731193 0.06430979 0.029376045 0.024497338 -0.11105077 0.1094599 0.12185377 -0.091073394
00000000: 2bb4 ce3d 67e2 183d b89f 65bd 720a 84bc
00000010: 91dd c3bc a2ed 71bc 8539 c93d a347 f83d
00000020: bf72 973d 0447 383d ddb5 e6bc 7ac8 8abd
00000030: a04a 0e3d e039 17bd 2d6b 263d a739 2dbd
00000040: 34c2 d23d 7bd5 733c 7a5a 803d 9cd2 a2bd
00000050: ec55 d3bd 960f dd3d 90b9 923d c0f4 a23c
00000060: 1801 0fbd b285 f43d 8030 39bc d40d bd3c
00000070: b864 30bd 9809 a33d 582a 4cbd d868 723d
00000080: 9ab7 95bd 31e6 9f3d 0cb5 e1bd c17c a63d
00000090: 6af6 84bd 8076 f73b 79e2 dd3d e776 e43b
000000a0: 46fb cbbd be87 c83d b0c0 e83d 7cb8 5cbd
000000b0: 28ee a5bd b5e7 603b 17b6 1b3b ac14 8fbd
000000c0: 465e afbd c07c 75bb 2633 ae3d 52a2 ea3d
000000d0: 36ea 22bd 29ca 0cbc 5615 843d 30bf 2abd
000000e0: e8e5 76bd 60a4 76bd 84e7 37bd 1b14 3e3d
000000f0: b12a b43d 7d8c d1bd 6f6d b6bd a852 a7bd
00000100: 8402 e2bd c121 eabd d0ee f03c 2219 cc3d
00000110: adef d53d badd 90bd 0fb4 823c 7379 d53c
00000120: b5b4 01be c2a1 a3bd 2752 d6bd a4f8 32bd
00000130: c241 84bd b5ed d6bd 4975 75bd a548 76bd
00000140: a679 cc3d 953b 023d 0c9c 07bd a22b 43bd
00000150: 9ed7 823c 708c 7fbc f4a1 40bd 8852 f7bc
00000160: a416 233d 86dd 0cbd 7874 06bd 90f2 f6bd
00000170: f4af 033d ed37 073d 6a1c bcbd 0469 2dbd
00000180: 8057 c13d 7deb d53c cabb d23d 461c d63d
00000190: 287d 21bc 2c4a 32bd b866 9a3c 9ba6 42bd
000001a0: d82a ca3d 20e7 fcbd a6eb 6dbc f840 dfbd
000001b0: 3750 f03d 615c c23d 949a 42bd 4897 21bd
000001c0: cdfc 0ebd e03a 123c aab7 8d3d d7fe e33c
000001d0: 4f9d 99bc 9e16 fa3c 4442 c23d feba 1f3c
000001e0: 0c3f 583d e4c3 0bbd 7477 fabd 76d0 af3d
000001f0: 7527 b93d 1a11 dc3d c1d3 b5bd 349f b23c
00000200: fb0d e03d b53c f43c 5e11 e7bd 1397 0e3e
00000210: c8e1 823c 9734 ff3c e080 0d3e c7fb 623c
00000220: c039 84bd 08ce d3bc 3ef8 da3d 58c9 d9bd
00000230: 8cd7 b43d 1fa5 883d a1de 8ebd 7246 ccbc
00000240: faa9 c03d 4db0 98bd aacf a53a cc1d 2e3d
00000250: a648 b83b 522d c43d 564d 26bd 00ee 63bc
00000260: e80e b03c 14a7 c4bd d07d 0c3c bd04 0fbd
00000270: d838 e33c a0ae d6bc 3e3e c1bd c8d2 113d
00000280: 1425 cebd 7029 4c3d 04f2 633d f3e2 3abd
00000290: e44d 8cbd 4a6b 933d 1b5a fdba 805b a1bc
000002a0: c0ee bbbc f98d 633d a510 4ebd bafe a3bd
000002b0: c81f a53d 97a8 74bd 0194 f63d 6afe a43d
000002c0: 6347 d1bd 0088 bfb8 2ce9 e2bd c0de b9bd
000002d0: 7b5e 143e f5cf e53c dd22 9c3d 5a3c 833d
000002e0: 16ca f73d 42c9 c9bd 388d ea3d 4d5e bf3d
000002f0: f389 fe3d 654d e83d 03f4 9cbd 2bae 473c
00000300: 4da8 fc39 5910 453d 3a00 ac3d 3519 703d
00000310: 5079 93bd e918 5abd ac8c 923d 43dc ab3d
00000320: 05fc 1b3d 1442 62bd 31cd dc3d 48ae bc3d
00000330: 3080 a1bc 51cc 96bd 5113 d43d c634 083d
00000340: 3229 92bd 1a52 bbbd b610 c5bd 78f9 bcbd
00000350: f8d5 dcbd 981b 44bd f70b cfbd 4a53 a3bd
00000360: 90e4 c83c 9bf9 e1bd 74f5 0cbd c140 65bd
00000370: 847c eebd 3500 e43d 60a4 6cbd 7ab9 c13d
00000380: b802 023d 1c16 e53d acdf bebd 5c0e 9e3d
00000390: b0e3 753c 1254 e33d c333 8abd 9029 cfbd
000003a0: 0cbe 95bd c11a c93b 3638 bb3d 80f0 963b
000003b0: 3ade 0f3d 174f 54bd eece f8bd 3a36 afbd
000003c0: fbc7 ad3c 5255 f53d 2003 71bc 7b12 a5bd
000003d0: a183 c93d 8270 52bd b584 23bc e770 b53d
000003e0: 2008 9bbb dab4 833d 08a6 f03c a4ae c83c
000003f0: 966e e3bd 832c e03d 788e f93d b084 babd

fc2.bias f4 [32]
0.07495181 0.034059178 -0.042960823 -0.08396066 -0.12755217 -0.10193539 -0.026265394 -0.048605055
-0.09849591 -0.0950588 0.0649413 0.029035967 -0.0458083 0.034152225 -0.02014041 0.11165311
0.042559247 0.10950727 0.057004586 -0.07993091 0.06660743 0.12042894 -0.08524035 0.0655731
0.12441781 -0.08772914 0.022638276 0.053076997 -0.10549396 0.019338224 0.11136565 -0.11577199
00000000: 5680 993d a381 0b3d b0f7 2fbd 91f3 abbd
00000010: 099d 02be 80c3 d0bd 862a d7bc 1816 47bd
00000020: 39b8 c9bd 30ae c2bd f2ff 843d d6dc ed3c
00000030: 7ca1 3bbd 34e3 0b3d 80fd a4bc 63aa e43d
00000040: 9b52 2e3d 5945 e03d a47d 693d d1b2 a3bd
00000050: 7a69 883d 73a3 f63d 7e92 aebd 304b 863d
00000060: c4ce fe3d 56ab b3bd e873 b93c 4467 593d
00000070: 380d d8bd 326b 9e3c ad13 e43d dd19 edbd

fc3.weight f4 [4, 32]
0.107261136 -0.04415785 0.08016964 -0.0747437 -0.13028386 0.17348485 0.036325946 -0.1185086
0.019017056 0.07042965 -0.09922838 -0.08243782 0.060705915 -0.06156639 -0.12656853 -0.10476852
0.16647927 0.14201768 -0.053875178 0.12191879 0.18300287 0.13773625 -0.16870017 0.13214065
0.13581727 -0.13399588 0.07730527 0.067150295 0.15045132 -0.033131227 -0.056847457 -0.023232343
0.10175869 0.14962403 -0.13072547 -0.11231559 0.104615465 -0.026879698 0.048804305 -0.006425402
-0.097109936 0.11707862 0.08035101 0.00794513 0.14313538 0.01641038 0.029271156 -0.07171832
0.036607265 0.025486907 0.06387232 0.13290346 0.024736693 -0.018081712 -0.037172124 0.05134797
0.052253477 0.03303703 0.121229246 -0.081695914 -0.099956244 0.11861602 -0.0010387809 -0.103472985
0.12142928 0.033935156 0.16641852 0.062412947 0.059465483 0.17107566 -0.17892976 -0.17291293
-0.13465108 0.071297035 0.06681303 0.07905372 -0.02077797 -0.06581795 0.049495935 0.06912161
-0.13497595 -0.060574163 0.120896325 0.074326076 0.006071386 -0.041336387 -0.000424698 0.028318191
-0.07997638 -0.13638322 0.15320028 0.030194953 -0.15622833 -0.15831687 0.123842984 0.1320739
0.04849093 -0.102769546 0.10742594 -0.016211823 -0.14557302 -0.03429213 -0.09196684 0.024124276
-0.15917282 0.041309282 -0.051211715 -0.056017566 -0.009692654 -0.072180435 -0.011166751 0.010693783
0.060162447 0.10212833 0.09253971 0.018587623 -0.07216172 0.16092293 -0.035441726 0.047592394
-0.03425584 0.06729566 0.030765668 -0.01628165 -0.107298456 -0.1246669 0.08061633 -0.022196272
00000000: baab db3d ddde 34bd fb2f a43d 3a13 99bd
00000010: 2269 05be 03a6 313e 84ca 143d a3b4 f2bd
00000020: a8c9 9b3c 6c3d 903d 4038 cbbd 29d5 a8bd
00000030: c4a6 783d 0a2d 7cbd 2e9b 01be e190 d6bd
00000040: 8b79 2a3e 156d 113e 38ac 5cbd 8fb0 f93d
00000050: 1b65 3b3e bb0a 0d3e bdbf 2cbe e14f 073e
00000060: af13 0b3e 3736 09be 3a52 9e3d 1886 893d
00000070: e90f 1a3e 9cb4 07bd e1d8 68bd c151 bebc
00000080: dc66 d03d 0b37 193e e6dc 05be b705 e6bd
00000090: a240 d63d d032 dcbc 06e7 473d 2e8c d2bb
000000a0: 93e1 c6bd eac6 ef3d 128f a43d 4a2c 023c
000000b0: 1592 123e 106f 863c 10ca ef3c 0ee1 92bd
000000c0: 80f1 153d ebc9 d03c 7ecf 823d d817 083e
000000d0: 9ba4 ca3c 1920 94bc cc41 18bd 4052 523d
000000e0: be07 563d d651 073d 0a47 f83d 3050 a7bd
000000f0: dcb5 ccbd f5ec f23d b427 88ba a5e9 d3bd
00000100: eaaf f83d 97ff 0a3d 9e69 2a3e b8a4 7f3d
00000110: 1492 733d 752e 2f3e 5d39 37be 1610 31be
00000120: f9e1 09be 2e04 923d 45d5 883d ebe6 a13d
00000130: 9036 aabc 90cb 86bd 40bc 4a3d a18f 8d3d
00000140: 2337 0abe 9d1c 78bd 7e98 f73d 4538 983d
00000150: 7af2 c63b 5850 29bd 00aa deb9 8dfb e73c
00000160: a8ca a3bd 0ba8 0bbe 89e0 1c3e 685b f73c
00000170: 52fa 1fbe d11d 22be 64a1 fd3d 613e 073e
00000180: 6d9e 463d d778 d2bd 2202 dc3d a8ce 84bc
00000190: 1811 15be e875 0cbd 1c59 bcbd 46a0 c53c
000001a0: 33fe 22be ec33 293d 60c3 51bd ad72 65bd
000001b0: f0cd 1ebc 56d3 93bd c0f4 36bc fa34 2f3c
000001c0: e66c 763d a828 d13d 7685 bd3d 1245 983c
000001d0: 86c9 93bd fbc8 243e 582b 11bd 3ef0 423d
000001e0: da4f 0cbd 4fd2 893d 4808 fc3c 1861 85bc
000001f0: 4bbf dbbd 5c51 ffbd 2d1a a53d f5d4 b5bc

fc3.bias f4 [4]
-0.057191964 0.12098195 0.08709419 0.07393439
00000000: 1f42 6abd 62c5 f73d 705e b23d ea6a 973d
